…
[<tensorflow.python.keras.callbacks.EarlyStopping object at 0x0000020DEF990850>, <tensorflow.python.keras.callbacks.ReduceLROnPlateau object at 0x0000020DEF990E50>, <tensorflow.python.keras.callbacks.ModelCheckpoint object at 0x0000020DEF9905E0>]
===TRAIN MODELS===

run_model
('Training Accuracy mean: ', 0.8778442714999362)
('Validation Accuracy mean: ', 0.46891010098341035)
('Training Loss mean: ', 0.5591998912575769)
('Validation Loss mean: ', 2.402811655184118)
Model: "sequential"
_________________________________________________________________
Layer (type)                 Output Shape              Param #   
=================================================================
dense (Dense)                (None, 256)               92672     
_________________________________________________________________
batch_normalization (BatchNo (None, 256)               1024      
_________________________________________________________________
dropout (Dropout)            (None, 256)               0         
_________________________________________________________________
dense_1 (Dense)              (None, 256)               65792     
_________________________________________________________________
batch_normalization_1 (Batch (None, 256)               1024      
_________________________________________________________________
dropout_1 (Dropout)          (None, 256)               0         
_________________________________________________________________
dense_2 (Dense)              (None, 128)               32896     
_________________________________________________________________
batch_normalization_2 (Batch (None, 128)               512       
_________________________________________________________________
dropout_2 (Dropout)          (None, 128)               0         
_________________________________________________________________
dense_3 (Dense)              (None, 128)               16512     
_________________________________________________________________
batch_normalization_3 (Batch (None, 128)               512       
_________________________________________________________________
dropout_3 (Dropout)          (None, 128)               0         
_________________________________________________________________
dense_4 (Dense)              (None, 7)                 903       
=================================================================
Total params: 211,847
Trainable params: 210,311
Non-trainable params: 1,536
_________________________________________________________________Finished run_model in 32.0261 secs


===simple evaluate===

model_simple_evaluate


('test loss, test acc:', [3.0422332286834717, 0.4865301847457886])
===SCORING TEST SET ===
…
