…
[<tensorflow.python.keras.callbacks.EarlyStopping object at 0x000002215378F910>, <tensorflow.python.keras.callbacks.ReduceLROnPlateau object at 0x000002215378F0A0>, <tensorflow.python.keras.callbacks.ModelCheckpoint object at 0x000002215378F040>]
===TRAIN MODELS===

run_model
('Training Accuracy mean: ', 0.874337812885642)
('Validation Accuracy mean: ', 0.649510383605957)
('Training Loss mean: ', 0.5566032640635967)
('Validation Loss mean: ', 1.5560504764318466)
Model: "sequential"
_________________________________________________________________
Layer (type)                 Output Shape              Param #   
=================================================================
dense (Dense)                (None, 256)               92672     
_________________________________________________________________
batch_normalization (BatchNo (None, 256)               1024      
_________________________________________________________________
dropout (Dropout)            (None, 256)               0         
_________________________________________________________________
dense_1 (Dense)              (None, 256)               65792     
_________________________________________________________________
batch_normalization_1 (Batch (None, 256)               1024      
_________________________________________________________________
dropout_1 (Dropout)          (None, 256)               0         
_________________________________________________________________
dense_2 (Dense)              (None, 128)               32896     
_________________________________________________________________
batch_normalization_2 (Batch (None, 128)               512       
_________________________________________________________________
dropout_2 (Dropout)          (None, 128)               0         
_________________________________________________________________
dense_3 (Dense)              (None, 128)               16512     
_________________________________________________________________
batch_normalization_3 (Batch (None, 128)               512       
_________________________________________________________________
dropout_3 (Dropout)          (None, 128)               0         
_________________________________________________________________
dense_4 (Dense)              (None, 7)                 903       
=================================================================
Total params: 211,847
Trainable params: 210,311
Non-trainable params: 1,536
_________________________________________________________________Finished run_model in 51.4554 secs


===simple evaluate===

model_simple_evaluate


('test loss, test acc:', [1.794737696647644, 0.6717720627784729])
===SCORING TEST SET ===
…
